mushroom_classifier.pth (torch, 17152 bytes, 6 tensors)

fc1.weight f4 [64, 22]
0.16272607 0.03491389 0.18360691 0.12985407 0.07597204 -0.09312763 -0.34831712 -0.024879895
-0.23095308 0.05075853 -0.07192885 -0.19577774 -0.23500341 0.012593389 -0.22437517 0.14434938
0.04818485 -0.13823612 0.058212142 0.17203721 0.1528754 0.13853315 0.009551833 -3.1769382e-06
-0.20362988 0.12189384 -0.14948168 0.022134949 0.15939264 -0.09261629 -0.08885952 0.14328578
0.01499337 0.11892952 0.17264678 -0.07978883 -0.14907707 0.12166593 -0.0041026725 -0.07848013
0.017410206 -0.0434978 0.17465144 -0.009351585 0.023180537 0.09089468 0.05167896 -0.008937887
-0.16612597 0.10228688 0.015063089 0.17852472 0.08118847 0.093119815 -0.035506353 -0.011482785
-0.15166412 0.083283104 0.17660055 0.06938687 0.05702203 0.15300982 -0.06444177 0.2062162
0.15887961 0.025719767 0.104888886 0.22834304 -0.023695972 -0.056042463 -0.16113135 0.089765936
0.029008165 0.013382764 0.19548638 -0.273745 0.120675296 0.04601772 0.17320323 -0.23349798
-0.26904196 -0.1642256 -0.13498655 -0.010103371 -0.12747 -0.11770233 0.12155455 -0.10365691
-0.06391819 0.014369212 0.19314478 -0.09753726 0.012473118 -0.20574807 0.12024784 -0.3752542
0.023125853 0.16185033 0.22634983 0.34099463 0.020961417 -0.063221656 -0.10754301 0.1350518
0.11058916 0.17553346 0.16773093 0.14016236 -0.06636454 -0.023062397 -0.20365253 -0.069503635
0.17091125 -0.1975903 -0.17564414 0.22793882 -0.11369726 0.2790295 -0.14348696 -0.028005203
-0.034966864 0.08141416 0.038909726 0.19753876 0.08174682 0.20291427 -0.009551824 0.22101949
0.17887533 0.033369847 -0.012207983 0.15701365 -0.027580231 -0.13665515 -0.062864155 -0.27164954
0.14598121 0.042089906 0.5096972 -0.3162418 0.015721768 -0.31878886 -0.13275409 -0.32010493
-0.0546539 -0.10128425 0.1255511 -0.0017999008 -0.09561397 0.16619305 -0.014573627 0.15448968
-0.14594467 0.15405305 0.020029388 0.107169196 0.10963518 0.3493463 -0.25560912 0.025110016
0.13052815 -0.43657255 -0.021564487 -0.042369615 0.4205113 -0.076469675 0.019419556 0.044249453
0.06537866 0.15010813 -0.064193316 -0.10401379 -0.18197055 0.06927285 -0.17379442 -0.027839843
-0.24227524 -0.037059236 -0.027677866 0.040038574 0.09738402 -0.12898314 -0.19603993 0.07303171
0.1713238 -0.23709163 -0.16868846 -0.21275121 -0.027574122 -0.10553083 0.13389389 -0.07723424
0.09043729 0.11242035 -0.19968419 0.24140589 0.05255687 0.071287744 -0.1439849 -0.13090745
0.0006286972 0.0989284 -0.20390297 -0.18473655 0.3899219 -0.3427089 0.012309817 -0.14524482
0.110489145 -0.101774 0.13887171 -0.03809127 0.08334254 -0.17568621 -0.070199326 0.1865431
0.14785601 0.2706687 0.026450707 0.16815913 -0.030100293 -0.09727558 -0.18302721 -0.050988704
0.06632216 0.024369968 -0.27266327 0.18197167 -0.0423955 0.051836282 -0.010294425 -0.2066785
0.17123707 0.10339265 0.24096946 0.036132462 0.1114581 -0.025305618 -0.1597389 0.16536376
0.060721032 0.041603923 0.0043620123 -0.18357694 -0.19741604 -0.067679636 -0.17075504 -0.058068432
-0.027413622 -0.06679343 -0.16028136 -0.20806946 0.20632274 -0.13969399 -0.16264366 -0.027790966
00000000: aaa1 263e de01 0f3d 7303 3c3e 77f8 043e
00000010: 3b97 9b3d b3b9 bebd 9f56 b2be ecd0 cbbc
00000020: f77e 6cbe 2de8 4f3d 6f4f 93bd f679 48be
00000030: bca4 70be 8054 4e3c 9bc2 65be 53d0 133e
00000040: 7a5d 453d c58d 0dbe db6f 6e3d 862a 303e
00000050: 5e8b 1c3e a2db 0d3e 4b7f 1c3c 6233 55b6
00000060: 5a84 50be 7aa3 f93d ba11 19be 5a54 b53c
00000070: d337 233e 9cad bdbd fbfb b5bd 82b9 123e
00000080: c0a6 753c 5291 f33d 51ca 303e 5368 a3bd
00000090: a9a7 18be fd2b f93d b66f 86bb 31ba a0bd
000000a0: d99f 8e3c c02a 32bd d4d7 323e 6437 19bc
000000b0: 1ce5 bd3c fd26 ba3d 51ad 533d 3770 12bc
000000c0: ed1c 2abe c97b d13d 2dcb 763c 2fcf 363e
000000d0: 2446 a63d 9ab5 be3d 1c6f 11bd 4b22 3cbc
000000e0: d74d 1bbe 5590 aa3d c6d6 343e b41a 8e3d
000000f0: ef8f 693d 9bae 1c3e 0cfa 83bd 572a 533e
00000100: 56b1 223e 43b2 d23c fccf d63d c2d2 693e
00000110: 0e1e c2bc c88c 65bd 9eff 24be 34d7 b73d
00000120: 88a2 ed3c 6143 5b3c 952d 483e 4e28 8cbe
00000130: 9c24 f73d 147d 3c3d 305c 313e 181a 6fbe
00000140: debf 89be c12a 28be ea39 0abe 9c88 25bc
00000150: 7f87 02be eb0d f1bd 98f1 f83d 134a d4bd
00000160: 8ae7 82bd d86c 6b3c bfc7 453e 9dc1 c7bd
00000170: 0c5c 4c3c 9faf 52be 8044 f63d 5221 c0be
00000180: 6e72 bd3c 18bc 253e 40c8 673e d996 ae3e
00000190: 47b7 ab3c 5b7a 81bd 823f dcbd 054b 0a3e
000001a0: 927c e23d 0bbf 333e a8c1 2b3e b986 0f3e
000001b0: 22ea 87bd 5aed bcbc 4a8a 50be ec57 8ebd
000001c0: 5c03 2f3e 1d55 4abe 0fdc 33be cb68 693e
000001d0: 1cda e8bd f4dc 8e3e 3fee 12be 2b6b e5bc
000001e0: 6a39 0fbd 78bc a63d ce5f 1f3d 9a47 4a3e
000001f0: e06a a73d c2c8 4f3e 417f 1cbc ef52 623e
00000200: 182b 373e d2ae 083d fe03 48bc 30c8 203e
00000210: f0ef e1bc 54ef 0bbe ecbe 80bd a615 8bbe
00000220: 197c 153e 7766 2c3d 847b 023f 72ea a1be
00000230: f0ca 803c 4b38 a3be b0f0 07be cbe4 a3be
00000240: c5dc 5fbd 1e6e cfbd 7890 003e a6ea ebba
00000250: 42d1 c3bd 832e 2a3e 39c6 6ebc 8b32 1e3e
00000260: 8572 15be 15c0 1d3e ac14 a43c 867b db3d
00000270: 6988 e03d 85dd b23e 33df 82be 85b3 cd3c
00000280: 2ca9 053e 7086 dfbe 02a8 b0bc c38b 2dbd
00000290: 424d d73e 229c 9cbd c315 9f3c ea3e 353d
000002a0: 3fe5 853d f2b5 193e c977 83bd 2f05 d5bd
000002b0: 7d56 3abe edde 8d3d 2af7 31be 6210 e4bc
000002c0: 0017 78be 6dcb 17bd b1bc e2bc 7dff 233d
000002d0: 4671 c73d 2814 04be b1be 48be a691 953d
000002e0: 826f 2f3e 26c8 72be abbc 2cbe 74db 59be
000002f0: 20e3 e1bc 8c20 d8bd 7b1b 093e fc2c 9ebd
00000300: 3037 b93d a43c e63d 037a 4cbe 1b33 773e
00000310: df45 573d 4fff 913d c770 13be 9a0c 06be
00000320: 28cf 243a f99a ca3d f1cb 50be 942b 3dbe
00000330: d8a3 c73e 8a77 afbe 1daf 493c 0fbb 14be
00000340: 2248 e23d e36e d0bd 6334 0e3e 9705 1cbd
00000350: 7eaf aa3d 16e7 33be aac4 8fbd 2805 3f3e
00000360: 9167 173e 1695 8a3e 27af d83c e831 2c3e
00000370: e494 f6bc 6b38 c7bd 7c6b 3bbe 88d9 50bd
00000380: ead3 873d 87a3 c73c 859a 8bbe c856 3a3e
00000390: e7a6 2dbd 4852 543d f3a9 28bc 87a3 53be
000003a0: c558 2f3e 87bf d33d b3c0 763e a2ff 133d
000003b0: 2544 e43d ba4d cfbc 9892 23be 1e55 293e
000003c0: 9eb6 783d e068 2a3d 36ef 8e3b 98fb 3bbe
000003d0: 6e27 4abe 9f9b 8abd 69da 2ebe 2ad9 6dbd
000003e0: 8892 e0bc feca 88bd cc20 24be 2910 55be
000003f0: 4546 533e f10b 0fbe 0f8c 26be e1a9 e3bc

fc1.bias f4 [64]
0.028383872 -0.18648288 0.19306114 0.06561497 0.032465488 0.17703871 0.039062314 0.24895908
0.055009224 -0.09665091 -0.115421034 -0.12376693 -0.046071827 0.006608562 0.07193437 -0.12292065
0.04113726 -0.050306525 -0.072521456 0.080184214 0.06504005 -0.20035046 -0.031298857 -0.09359606
0.040557507 0.08647421 -0.18406057 0.22687666 0.124982685 0.002286621 0.17100643 0.20251217
-0.054734148 0.11139246 -0.07516736 0.1350185 0.2195107 -0.10391708 -0.01154183 0.08045231
-0.19951764 -0.15915582 0.00635331 0.16882767 -0.17328787 0.112120114 -0.00203645 -0.16235949
0.013239401 0.092192486 -0.07952815 0.15743962 -0.17201039 0.1708516 -0.04405103 0.178345
-0.079852015 -0.1194529 0.05748618 -0.05717422 -0.073421106 0.16178924 0.028689185 -0.006606522
00000000: 4b85 e83c 5ef5 3ebe d2b1 453e 2461 863d
00000010: 88fa 043d a349 353e ceff 1f3d 21ef 7e3e
00000020: 5a51 613d eaf0 c5bd dd61 ecbd 8479 fdbd
00000030: d0b5 3cbd a38c d83b 5452 933d d2bd fbbd
00000040: 8b7f 283d 370e 4ebd 2186 94bd 9f37 a43d
00000050: b833 853d ac28 4dbe 3b33 00bd 4baf bfbd
00000060: a11f 263d 6419 b13d 607a 3cbe 5b52 683e
00000070: ecf6 ff3d 22db 153b 4f1c 2f3e 5a5f 4f3e
00000080: ea30 60bd bb21 e43d 58f1 99bd 4a42 0a3e
00000090: 6ac7 603e 7ad2 d4bd f219 3dbc 2ec4 a43d
000000a0: 5a4e 4cbe bef9 22be 6d2f d03b 29e1 2c3e
000000b0: 6072 31be 3b9f e53d f675 05bb 9141 26be
000000c0: 13ea 583c 6acf bc3d a8df a2bd da37 213e
000000d0: 7e23 30be b9f3 2e3e da6e 34bd 12a0 363e
000000e0: 7489 a3bd b9a3 f4bd a176 6b3d 842f 6abd
000000f0: ce5d 96bd 14ac 253e 9505 eb3c 867b d8bb

fc2.weight f4 [32, 64]
-0.14285305 0.05283442 -0.04004207 -0.10467868 0.045003723 -0.06070194 0.13529909 0.41313
-0.05479176 0.0985313 0.07526913 -0.0051772 -0.007590876 0.108133316 0.0036953548 -0.01747182
-0.18222943 -0.084561236 -0.26723918 0.033358276 -0.14793685 -0.0038486833 -0.036103312 0.09737815
0.26984364 0.086572744 0.13815573 -0.13103196 -0.011065468 -0.02305061 0.23211092 -0.11654866
0.070702165 0.10939082 0.0136428205 0.1415584 -0.20940247 -0.10456286 -0.11330641 0.1319387
-0.058344323 -0.046379212 0.012435212 0.12687604 -0.2562272 -0.14315018 0.06351988 0.09639789
-0.06762154 -0.13009635 -0.010051906 -0.12128276 0.065584294 0.11707377 -0.094233334 0.253223
-0.1961975 0.020874763 0.30397213 -0.2539745 0.026753867 -0.06944407 0.12058686 0.10930342
-0.14364177 -0.11803286 0.10251102 0.008142925 -0.012716038 -0.08464436 0.17649184 0.2408496
-0.1437572 0.17897502 -0.12587768 -0.06894328 -0.23883681 0.08544757 0.06770094 -0.0441902
-0.15244667 0.02077513 -0.14831284 0.043130524 -0.035870187 0.13637324 -0.07368626 0.28045237
0.29096887 -0.060790077 0.05417082 -0.20032784 0.046068013 -0.00796291 0.055730477 -0.11079843
-0.049097225 0.26466975 0.018099971 0.13641186 -0.06587552 -0.21184921 -0.2420451 0.16663562
0.026997581 -0.004058588 -0.063760005 0.16136993 -0.34382498 -0.16488688 -0.016929356 -0.000332631
-0.13733663 -0.21368189 -0.11665694 0.0020781297 0.10295793 0.1239226 -0.11749201 0.25618014
-0.1225089 0.123111956 0.27574876 -0.14717416 -0.10774674 -0.07585519 -0.07369593 -0.055607744
0.106867075 -0.08278172 0.03942249 0.06829953 -0.056596708 0.07278498 -0.33728936 -0.3980418
-0.032125883 -0.06973573 -0.04369507 0.026967734 0.09214484 0.021668471 -0.036140937 0.017711535
0.100546815 0.13016212 0.13009554 0.039018854 0.16684069 -0.0171718 0.083158076 -0.15421697
-0.206072 0.0977108 0.059777558 0.24827139 0.047045022 0.11671304 -0.12195469 0.10101929
-0.10381855 -0.23661277 0.08927624 -0.16275823 0.2261285 0.21054427 0.34933326 -0.23032445
-0.0845236 -0.04898458 0.1068418 0.013798596 0.28955728 0.23660755 -0.13210042 0.118769325
0.19172533 0.3597539 -0.02780909 0.047795117 -0.030678632 0.13428733 0.16732919 -0.18604928
0.17654528 0.018443191 -0.3718215 0.29091525 0.15200922 0.13465892 -0.07107383 -0.03260408
-0.0063046557 -0.12300646 0.023324221 0.14875951 0.09282937 -0.0869968 -0.12594151 -0.30441076
-0.00894189 -0.015664345 0.08744668 -0.0130634755 0.13365595 -0.07257594 0.056291636 0.07164802
-0.020994753 0.10877701 0.11914095 -0.0061279465 -0.10909955 -0.11133104 0.07945488 -0.23228344
0.0063026487 -0.0461425 0.10459831 0.21274535 0.01784581 0.07752557 -0.39337248 -0.10407534
-0.06451669 -0.037778564 0.1969246 -0.034662925 0.12509087 0.074940234 0.2831454 -0.21711949
-0.024956934 -0.047350895 -0.07395189 0.108611226 0.40714195 0.079082556 -0.15510875 0.11005639
0.10576935 0.28398266 -0.13447183 0.038775954 0.05659592 0.008752857 0.2577566 -0.119993955
0.2482241 0.10037764 -0.32636243 0.16857481 -0.009873272 0.19861777 -0.076084144 -0.04895395
00000000: 1248 12be e868 583d 2703 24bd c761 d6bd
00000010: d355 383d 99a2 78bd d88b 0a3e c685 d33e
00000020: 536d 60bd c7ca c93d b426 9a3d 80a5 a9bb
00000030: e2bc f8bb 0075 dd3d c42d 723b 1021 8fbc
00000040: 5a9a 3abe 712e adbd 93d3 88be b0a2 083d
00000050: c27c 17be 313a 7cbb 11e1 13bd 326e c73d
00000060: f228 8a3e 0d4d b13d b278 0d3e 3e2d 06be
00000070: f04b 35bc a2d4 bcbc 7cae 6d3e 10b1 eebd
00000080: 4ccc 903d 4b08 e03d 2386 5f3c aff4 103e
00000090: 9a6d 56be 0e25 d6bd 310d e8bd f01a 073e
000000a0: 75fa 6ebd 21f8 3dbd 0fbd 4b3c cbeb 013e
000000b0: 3630 83be f695 12be b616 823d 426c c53d
000000c0: 297d 8abd fa37 05be c0b0 24bc 1863 f8bd
000000d0: 0f51 863d 5fc4 ef3d 68fd c0bd 72a6 813e
000000e0: ffe7 48be 8d01 ab3c 3ca2 9b3e f208 82be
000000f0: ed2a db3c b138 8ebd 3ef6 f63d 79da df3d
00000100: d416 13be 36bb f1bd 4cf1 d13d e769 053c
00000110: ee56 50bc 065a adbd 47ba 343e 47a1 763e
00000120: 1635 13be 3a45 373e 14e6 00be 2232 8dbd
00000130: a391 74be 23ff ae3d caa6 8a3d c800 35bd
00000140: fb1a 1cbe 9b30 aa3c 52df 17be a2a9 303d
00000150: 9eec 12bd 6da5 0b3e d2e8 96bd 7497 8f3e
00000160: dff9 943e 04ff 78bd 39e2 5d3d be22 4dbe
00000170: d0b1 3c3d de76 02bc a445 643d 4aea e2bd
00000180: 2c1a 49bd cb82 873e 6446 943c 8daf 0b3e
00000190: bfe9 86bd 00ef 58be acda 77be 87a2 2a3e
000001a0: 082a dd3c e7fd 84bb 9b94 82bd 293e 253e
000001b0: d409 b0be 1bd8 28be 6faf 8abc fa64 aeb9
000001c0: f9a1 0cbe 6dcf 5abe d5e9 eebd 3b31 083b
000001d0: 9bdb d23d 22cb fd3d a79f f0bd 0b2a 833e
000001e0: f2e5 fabd 1f22 fc3d f12e 8d3e d3b4 16be
000001f0: 53aa dcbd f759 9bbd e4ed 96bd f2c4 63bd
00000200: 20dd da3d 7689 a9bd 7a79 213d a0e0 8b3d
00000210: f3d1 67bd 4b10 953d 31b1 acbe 23cc cbbe
00000220: 6e96 03bd 9bd1 8ebd 9af9 32bd 70eb dc3c
00000230: 6fb6 bc3d 1482 b13c 8508 14bd c817 913c
00000240: 7deb cd3d 3849 053e c437 053e 3cd2 1f3d
00000250: 49d8 2a3e e0ab 8cbc c84e aa3d 0eeb 1dbe
00000260: 8a04 53be 9a1c c83d 50d9 743d db3a 7e3e
00000270: 48b2 403d 3f07 ef3d 61c3 f9bd 34e3 ce3d
00000280: d29e d4bd 9e4a 72be 76d6 b63d 18aa 26be
00000290: 3b8e 673e eb98 573e cfdb b23e 2cda 6bbe
000002a0: b61a adbd 0ea4 48bd e0cf da3d 8213 623c
000002b0: da40 943e 4049 723e 5545 07be 553d f33d
000002c0: a553 443e aa31 b83e e4cf e3bc d0c4 433d
000002d0: c151 fbbc 9e82 093e 5858 2b3e b483 3ebe
000002e0: 49c8 343e 2d16 973c 635f bebe d8f2 943e
000002f0: 4ea8 1b3e 07e4 093e 288f 91bd db8b 05bd
00000300: 4997 cebb d0ea fbbd 7012 bf3c 6a54 183e
00000310: 531d be3d 612b b2bd d0f6 00be badb 9bbe
00000320: 0181 12bc 8352 80bc 3f17 b33d 3008 56bc
00000330: 1bdd 083e b2a2 94bd 0f92 663d 32bc 923d
00000340: 30fd abbc 7bc6 de3d 2c00 f43d f1cc c8bb
00000350: 966f dfbd 8701 e4bd 3db9 a23d b6db 6dbe
00000360: 7386 ce3b ebff 3cbd a437 d63d ebd9 593e
00000370: 6031 923c bac5 9e3d 1e68 c9be 7425 d5bd
00000380: 5421 84bd b2bd 1abd 9aa6 493e b6fa 0dbd
00000390: d217 003e 447a 993d 6ff8 903e 9254 5ebe
000003a0: 7c72 ccbc 03f3 41bd 1774 97bd 906f de3d
000003b0: e974 d03e 09f6 a13d d4d4 1ebe 3f65 e13d
000003c0: 9a9d d83d 2d66 913e fcb2 09be 89d3 1e3d
000003d0: 20d1 673d 2568 0f3c acf8 833e 64bf f5bd
000003e0: 752e 7e3e cb92 cd3d fa18 a7be e09e 2c3e
000003f0: 81c3 21bc 7562 4b3e 01d2 9bbd f083 48bd

fc2.bias f4 [32]
0.101001434 0.049012776 0.112472855 -0.0766725 -0.00674136 0.13368285 0.079388216 -0.044312313
-0.03592097 0.16311967 -0.08326992 -0.008214342 -0.06291811 0.08986075 0.080926664 -0.0026572645
-0.10193236 0.035424817 -0.047733787 0.1340182 0.12976329 0.029201759 0.11708815 -0.11909069
-0.09690212 -0.08938121 -0.1097809 -0.042940293 0.06864263 0.121954896 -0.10144492 0.09484922
00000000: d7d9 ce3d 9fc1 483d 2b58 e63d 7906 9dbd
00000010: a0e6 dcbb 28e4 083e 4a96 a23d d480 35bd
00000020: de21 13bd d808 273e 6b89 aabd 7395 06bc
00000030: 36db 80bd ea08 b83d e1bc a53d 8025 2ebb
00000040: eac1 d0bd 9d19 113d 8184 43bd 113c 093e
00000050: abe0 043e 8738 ef3c e9cb ef3d d2e5 f3bd
00000060: 9e74 c6bd 7f0d b7bd cfd4 e0bd 29e2 2fbd
00000070: 8294 8c3d 7dc3 f93d 5bc2 cfbd 4f40 c23d

fc3.weight f4 [2, 32]
0.07192643 0.3005973 -0.3514235 -0.11543903 -0.11003197 -0.2284686 0.18539213 0.34866634
0.22726998 -0.26279733 -0.35646373 -0.3081585 -0.15838917 -0.27630258 -0.27959865 0.17578542
0.3944508 0.22822253 0.10887593 0.24861833 0.17796433 -0.3119774 -0.22304328 -0.10974364
0.01409347 0.09439814 -0.04817975 0.18918407 -0.2348357 0.023431348 0.20585631 -0.32582155
-0.15345706 -0.08879206 0.15515208 0.19866148 0.29531878 0.07129485 -0.28602558 -0.5325932
-0.11189314 0.25393176 0.17225043 0.3368906 0.18148124 0.19943866 0.34180617 -0.018282901
-0.3893761 -0.12449371 0.041769035 -0.23834257 -0.2423501 0.07808715 0.17712864 0.40146366
-0.09159966 -0.08371023 -0.11669215 -0.2767336 0.2631513 -0.25212854 -0.1334614 0.23351255
00000000: 2a4e 933d e4e7 993e c8ed b3be 4c6b ecbd
00000010: 7158 e1bd acf3 69be 6fd7 3d3e 6584 b23e
00000020: 76b9 683e 5f8d 86be 6a82 b6be f3c6 9dbe
00000030: c530 22be 8877 8dbe 8e27 8fbe 1801 343e
00000040: 75f5 c93e 2bb3 693e 58fa de3d ce95 7e3e
00000050: 483c 363e 80bb 9fbe 7565 64be 46c1 e0bd
00000060: 4ce8 663c d053 c13d 2158 45bd 78b9 413e
00000070: c578 70be 19f3 bf3c ffcb 523e 15d2 a6be
00000080: d923 1dbe 9dd8 b5bd 30e0 1e3e ea6d 4b3e
00000090: 0634 973e 0903 923d f271 92be 0758 08bf
000000a0: 3b28 e5bd 5803 823e 6b62 303e ed7c ac3e
000000b0: 38d6 393e a639 4c3e 3801 af3e 06c6 95bc
000000c0: 4e5c c7be 8ff6 febd 0216 2b3d 1310 74be
000000d0: a02a 78be 28ec 9f3d 3661 353e a58c cd3e
000000e0: 9a98 bbbd 4570 abbd 4bfc eebd 07b0 8dbe
000000f0: c4bb 863e fe16 81be 1baa 08be ea1d 6f3e

fc3.bias f4 [2]
0.13931149 -0.14003521
00000000: aca7 0e3e 6465 0fbe
